face_recognition.tflite (tflite, 150116 bytes, 10 tensors)

sequential_1/conv2d_4/BiasAdd/ReadVariableOp/resource f4 [32]
00000000: 8abb 9f3b cf62 353c f9b9 aa3b b8a8 44bc
00000010: e0d2 0bb9 84c0 f43b 96d6 38bc d57c 81bb
00000020: 13b7 29ba 49f4 1a3c 0000 0000 3959 20bb
00000030: 6d08 03bc dcb8 1f3c fd33 ebbb ea6b 753b
00000040: 07f1 d43a 2a6a 433c 3214 bbbb 0000 0000
00000050: 401e a43b 55ce eb3a 7aa9 aebb 5eec 273c
00000060: 4348 163c d820 1639 5c1c c13b 100f 0abc
00000070: f66c a9bb ac8d 0bbc 0fab 443a 0ed0 193c
0.0048746513 0.011070921 0.005210158 -0.012003116 -0.0001333463 0.0074692387 -0.01128163 -0.0039516487
-0.00064741186 0.009457656 0.0 -0.0024467243 -0.007997614 0.009748664 -0.0071778283 0.0037448355
0.0016246148 0.011927167 -0.0057091946 0.0 0.005008489 0.0017990569 -0.005330262 0.010249225
0.009172502 0.0001431735 0.0058932733 -0.008426443 -0.00517046 -0.008517664 0.00075022964 0.009387983

sequential_1/conv2d_5/BiasAdd/ReadVariableOp/resource f4 [32]
00000000: ae1e 443c 3858 25bc 74df 353b 445d 173c
00000010: cacb 893c 7221 ba3b 7ead a33b 3d81 b83b
00000020: 2648 05bb 52cd b239 3446 48bb 8051 b33a
00000030: ba2f b33a 0000 0000 d0c5 febb 8ca8 06bb
00000040: 3d47 b93b 9184 1b3b fe7c de3b c67d 61b9
00000050: 5bb3 913c 0000 0000 e524 383c 0000 0000
00000060: 0903 05bc eab1 4a3c 8df5 1e3b 65a7 ac3a
00000070: f0f5 abbb f609 0dbc 0727 06bb 7242 d93b
0.011970205 -0.010091834 0.0027751597 0.009238545 0.016820807 0.0056802565 0.004995047 0.005630641
-0.0020337193 0.0003410378 -0.0030559422 0.0013680905 0.001367084 0.0 -0.007775046 -0.002054724
0.005654244 0.0023730139 0.0067898026 -0.00021504526 0.017785719 0.0 0.011239265 0.0
-0.008118399 0.01237152 0.0024255246 0.0013172446 -0.005247824 -0.008608332 -0.002047004 0.0066302354

sequential_1/dense_2/BiasAdd/ReadVariableOp/resource f4 [128]
00000000: c789 363c 8b30 cb39 91dc cb3b 7a38 063c
00000010: 6e79 d3ba 9cc9 21bc 7082 f9bb a31b 633c
00000020: 8ba2 5bbc 3a34 053b 9e62 b8bb 0000 0000
00000030: f8c0 e7bb 0000 0000 db29 fcbb 0000 0000
00000040: a295 573c f1e0 2b3b 48ad a53b 0000 0000
00000050: 72e6 82bb 8f95 36bc 3f7a 133a 8b06 603c
00000060: 86dc 083c e309 c1bb 9512 3fbc 86d0 1fbc
00000070: 93e2 403c 0000 0000 cd47 b2bb 3abf 91bb
00000080: 7bfa 443b 438c 0c3c ad15 cd3b 0b7e 3bbc
00000090: 71c7 a8ba 8d60 e73b e828 0abc 1105 e5bb
000000a0: 7619 123c 6611 1a3c 79c3 53bb 0000 0000
000000b0: 960f c1bb ce99 403c 2d25 03bb 1447 04bc
000000c0: d5ef f2b9 bd2f 403c 0000 0000 78c0 5ebc
000000d0: 0000 0000 ae87 213c fc16 a23b 4a6a 8a3b
000000e0: f733 4ebb 0d91 e33b 0000 0000 1a67 06bb
000000f0: aacb 313c 8e39 ce3b 0000 0000 9fdf fbbb
00000100: 0000 0000 709c b9bb 0000 0000 3c4c c1bb
00000110: 0000 0000 ee7e dcbb dbe0 7e3c 938a 31bc
00000120: 0000 0000 0000 0000 0709 e4bb 6d4a a2bb
00000130: 0000 0000 9650 32bc 5361 08bc 04ae 1bbc
00000140: 0000 0000 0000 0000 e92d 91bb 1926 113c
00000150: 69b2 06bc 0000 0000 c44c ac3b d352 8fbb
00000160: 5cd8 173b 5f3a a53c eeef fc3b 873d c1bb
00000170: 0000 0000 c38e 16bc 5420 d6bb 85c8 073c
00000180: 0000 0000 0000 0000 4ac4 3dbc 0000 0000
00000190: ae4d c1bb aacc 483c 0000 0000 0000 0000
000001a0: d91a 03bc 2971 e7bb 6ed7 1dbc 05bd 1e3c
000001b0: acdd aebb 156d 013c aa59 cbbb 4711 3f3c
000001c0: 0c3a c2bb 0000 0000 2900 43bc be5a 513c
000001d0: a971 46bb 0000 0000 620e cc3b 469a e4bb
000001e0: 96e4 4dbc 84ce 0f3c 5f5a 853b 0000 0000
000001f0: f930 e8bb 22e5 0ebc a80d 553c 7697 efbb
0.011141247 0.00038755345 0.006221362 0.008192176 -0.0016134211 -0.009874728 -0.0076144263 0.01386157
-0.0134054525 0.002032532 -0.0056269905 0.0 -0.007072564 0.0 -0.0076954192 0.0
0.013158234 0.0026226605 0.005056057 0.0 -0.0039947564 -0.011144056 0.0005625821 0.013673435
0.008353358 -0.005891071 -0.011662145 -0.009754306 0.0117727695 0.0 -0.005440688 -0.004447845
0.0030056525 0.008578363 0.0062586875 -0.011443625 -0.0012876821 0.0070610703 -0.008432604 -0.0069891294
0.008917203 0.009403562 -0.0032312556 0.0 -0.0058917506 0.01175542 -0.0020011172 -0.008073587
-0.00046336526 0.011730132 0.0 -0.013595693 0.0 0.009859009 0.0049465876 0.0042240964
-0.003146408 0.0069447816 0.0 -0.002050823 0.01085178 0.006293482 0.0 -0.00768657
0.0 -0.0056644008 0.0 -0.0058989804 0.0 -0.0067289984 0.015556539 -0.010836261
0.0 0.0 -0.006959084 -0.00495272 0.0 -0.010883471 -0.008323985 -0.009501938
0.0 0.0 -0.0044305217 0.008859181 -0.008221247 0.0 0.0052581746 -0.004373887
0.0023169732 0.020169435 0.0077190315 -0.005897227 0.0 -0.0091893105 -0.0065346155 0.008287554
0.0 0.0 -0.0115824435 0.0 -0.0058991527 0.012255827 0.0 0.0
-0.008002006 -0.0070630503 -0.009633882 0.00968862 -0.005336484 0.007899542 -0.006205757 0.011661834
-0.00592733 0.0 -0.011901894 0.012777982 -0.003028015 0.0 0.0062273005 -0.0069763986
-0.012566706 0.0087772645 0.004069611 0.0 -0.007085916 -0.008721622 0.013003744 -0.0073117567

sequential_1/dense_3/BiasAdd/ReadVariableOp/resource f4 [5]
00000000: a5f9 d7ba 5c53 0b3c ea83 00bc 5dc7 a83b
00000010: b71d 17bc
-0.0016477598 0.008503761 -0.007843951 0.005150719 -0.009223393

sequential_1/dense_2/MatMul f4 [128, 128]
00000000: dd01 d5bd 917b 763d 3e34 7a39 fa87 253d
00000010: 7500 223c ded7 98bc 0c1e e13c 8fb4 043e
00000020: fa1a 953d fd85 483d a6ee fe3d 1a45 6e3d
00000030: 9e94 ec3c 1044 c53d f02b 193e 8ffc 7a3d
00000040: bd0b c8bd a319 c6bd ce13 b33c 11dd cd3d
00000050: 48f3 07be 2810 573d 34d0 75bd 364e e93d
00000060: 61f5 bcbd 706b 03bd 6157 18be 5039 ca3c
00000070: fcf4 073e ce7a 033d 3a6c 0ebd 6b37 013e
00000080: 88a6 273d 0c80 3bbe d999 a63c ce68 7fbd
00000090: d0af e03d ca37 1cbb ae6f b0bd d631 373c
000000a0: 28a6 f2bd 5ed3 253d a469 053e 6e85 ac3d
000000b0: 59a9 8b3d 4635 8ebd 2f27 b5bd b381 c93d
000000c0: 0f60 dcbd a97c ab3d da30 a93d c106 63bd
000000d0: 8f74 ab3b 30bf 18bc 66a0 92bd ece8 14be
000000e0: 388d 963d 0a90 11bc 6de7 963d d390 8b3d
000000f0: d9d9 c73d 4293 5d3d a38d 1dbe 0e55 febd
00000100: e982 89bc b75a df3d 80f2 ef3c 2058 06be
00000110: 2303 7c3d e245 e43a 17fb 683d 5823 eb3c
00000120: 00e3 a33d ba6b 8c3d 31c5 083e c104 883d
00000130: 516b 323d 123c 11be bad3 04be d98b f0bd
00000140: 92b1 2bbd bba5 1cbe f651 2c3e ed56 913d
00000150: 607b 533d 3c57 a6bd 1ab6 9cbd 028b 16bd
00000160: bb01 0a3e 8e84 89bd 0a5f 763d 2f18 37bd
00000170: 451f 133e b331 133e a838 363e e556 f03d
00000180: 1e24 86bd 5ec1 1f3e 3bc1 b93c dfe5 153e
00000190: 4fa6 eb3d 11f8 f23d ed5f ef3d a857 883d
000001a0: 6e0e c13d 81ed 093c f1d9 81bd 1003 dc3d
000001b0: a57d b63d 2676 13be a93d fb3c 820c 08be
000001c0: 7d9c c6bd a408 e3bd 58fa 1b3e 08ac bdbc
000001d0: e4a0 7c3b 201a bdbb 2124 fabd d0e6 1a3c
000001e0: c14f 003e de2d 803b 1b02 e03d b2c4 01be
000001f0: 7a9b 5ebd 8f15 88bd d3d6 063e 21f5 da3d
00000200: 38db b3bd e684 8bbd b371 e8bd c09c 1ebd
00000210: 209b 093e 925f 7f3d 0e7d 3dbd efa8 7ebd
00000220: 18e4 273e 4fd3 233e cf12 1bbe 4cf7 f13d
00000230: 6967 cbbd da4d 05be c7d4 e03d f07c f9bb
00000240: 63ba 9dbd 4c6f 953d 4c4f 943c 2685 dbbd
00000250: 91c2 8c3d 40ef 0ebc 249f 82bd 817e 173e
00000260: ea51 943b f19c 27bd 35b0 21bd d14e 953d
00000270: a2dc babb 74d4 9abd 25f2 15be 3bfc 8dbd
00000280: e541 16be af81 243e a752 1a3b 3f49 5bbd
00000290: 3b25 1fbe 3018 823c 27cb f43d fc40 c03d
000002a0: 906f 9f3d 520a 513d f550 11bb 28e0 07bd
000002b0: 18ca 07be 1bdd dbbd b114 b8bd 6ac4 0bbe
000002c0: 32c2 ffba 9fb3 e7bd 64f6 543d f1fc a3bd
000002d0: 0f8f 02be 6a8b 24bd b8ec 033e 46cd 88bd
000002e0: 9ee5 213e 7ba3 42bc 907e 793d 4aec adbd
000002f0: 1295 a13c 6bf3 1e3b b31a 05be 8aba 903d
00000300: 0483 cabd 4213 19be 69ff 2c3d 3491 543d
00000310: 0cc3 cbbd 4a45 293e d317 b6bd 0851 ce3d
00000320: dc63 093e 2e79 25bc 802e adba 64a6 84bd
00000330: 3492 fbbd 7b18 e9bd 13d9 cc3d 2fcd c2bc
00000340: d257 b6bd 74af 8c3c 2d08 e0bd f5b9 c0bd
00000350: 3c61 16bd ea9d f6bd 2754 26bd c01c 083c
00000360: d28d e43d d695 03be 6364 21be 5054 4cbc
00000370: e37e fd3d 0fcc 8dbc 7024 d73d 0921 68bd
00000380: b0cd 68bd 483d 10be 6adb c7bd 10be e7bd
00000390: 9bc9 64bd 021c 373e 8a6f 71bd e8cd 293d
000003a0: ffc5 87bd 34ab 5dbc 7df9 553c 8868 273d
000003b0: d2f2 b9bd 40af 343c 73cd 4b3d b881 de39
000003c0: b7c3 cbbd ebba 5bbd 296c 123e a4c7 c5bd
000003d0: 8fed cb3c 0019 22bd e20e 563c 1035 e33c
000003e0: cb5d 3f3a 08a2 3d3d 9a8c d1bd 447f a9bd
000003f0: cc2b ab3d 5b11 d3bd e2af 14be 0ff4 0dbe
-0.10400746 0.060176436 0.0002386132 0.04041288 0.009887804 -0.018657621 0.027480148 0.12959503
0.07280536 0.048955906 0.12447862 0.05817137 0.02887946 0.096321225 0.14958167 0.061276015
-0.09767864 -0.096728586 0.02186003 0.10051931 -0.13276398 0.052505642 -0.06001301 0.11391871
-0.0922649 -0.032084882 -0.14877082 0.024685532 0.13277048 0.032099538 -0.03477118 0.12618797
0.0409303 -0.18310565 0.020337032 -0.06235581 0.109710336 -0.0023836964 -0.08615051 0.011181315
-0.11848098 0.04048478 0.1302858 0.08423887 0.0681941 -0.06943755 -0.08845364 0.09839191
-0.10760509 0.083733864 0.08261271 -0.055426363 0.0052324007 -0.009322926 -0.071595 -0.14541978
0.07351154 -0.008884439 0.0736836 0.068147324 0.09758348 0.054095514 -0.15386061 -0.12418567
-0.016786056 0.10905974 0.029290438 -0.13119555 0.06152643 0.0017415846 0.056880083 0.028703377
0.08002281 0.06856485 0.13356473 0.06641532 0.043559376 -0.14183071 -0.12971392 -0.11745424
-0.04191739 -0.15297596 0.1682814 0.07096658 0.05163133 -0.081221074 -0.076519206 -0.036753662
0.13477223 -0.06714736 0.06014923 -0.044700798 0.14367397 0.14374427 0.1779505 0.11735324
-0.065498576 0.15601107 0.022675147 0.1463847 0.1150633 0.11863721 0.11688218 0.06657344
0.0942658 0.008418442 -0.06340397 0.107427716 0.089106835 -0.14400539 0.03066905 -0.13286021
-0.096978165 -0.110856324 0.15232217 -0.02315332 0.0038548047 -0.0057709366 -0.12213922 0.009454444
0.12530424 0.003911718 0.109379016 -0.1267269 -0.054347493 -0.06644737 0.13167886 0.10691286
-0.08782047 -0.06812458 -0.113498114 -0.038723707 0.13438082 0.062347002 -0.04626184 -0.062172826
0.16395605 0.15998577 -0.15143894 0.11814746 -0.09931833 -0.1301798 0.10978084 -0.0076137707
-0.07701566 0.07296619 0.018104218 -0.107187554 0.06873048 -0.008724034 -0.0637801 0.14794351
0.0045263665 -0.040921155 -0.039474685 0.07290424 -0.005702571 -0.075600535 -0.14643152 -0.06932875
-0.14673574 0.16065095 0.00235478 -0.05353665 -0.15541546 0.015880674 0.11952811 0.09387395
0.07784951 0.051035233 -0.0022173498 -0.033172756 -0.13260686 -0.10735532 -0.089883216 -0.13649145
-0.0019512831 -0.11313557 0.05199279 -0.08007229 -0.12749885 -0.040172018 0.1288327 -0.06679778
0.15810248 -0.011879797 0.060911715 -0.08492334 0.019724403 0.0024253975 -0.12998466 0.070668295
-0.098882705 -0.14948753 0.042235766 0.05189629 -0.099493116 0.16530338 -0.08891263 0.10074049
0.13417 -0.010099692 -0.0013212711 -0.06477049 -0.122837454 -0.113816224 0.10002341 -0.02377948
-0.08903469 0.017173506 -0.109390594 -0.094104685 -0.036713824 -0.120418385 -0.040607598 0.008307636
0.111598626 -0.12850127 -0.1576095 -0.012471274 0.12377717 -0.017309217 0.10504997 -0.05667213
-0.056836784 -0.14085877 -0.09758647 -0.113155484 -0.05585633 0.17881778 -0.058944263 0.041456133
-0.06629562 -0.013529588 0.013059971 0.040871173 -0.090795174 0.011028111 0.04975648 0.00042439788
-0.09949439 -0.053645056 0.14299072 -0.09657219 0.02489355 -0.039574623 0.013065072 0.027735263
0.0007300048 0.046297103 -0.10231896 -0.08276227 0.08357963 -0.10306045 -0.14520219 -0.13862632

sequential_1/dense_3/MatMul f4 [5, 128]
00000000: 3798 87bd d249 673e fa0a aabd 554d 233e
00000010: fd18 3abe 0080 d0bd fad3 4c3e 7f18 2abe
00000020: 7908 babd b289 3abe feaf 283e 1c73 df3d
00000030: 22d4 a4bd f86e 853c 1313 c63d 9368 17be
00000040: a455 0c3e 76bc d4bc e7e5 a8bd 3b47 23be
00000050: e94b 683e d645 53bd 2306 a63d 05fb 4abe
00000060: 8b2e b43d 02b9 1fbe 9841 c63d c2b9 953c
00000070: 203c d63d 5fa6 cebd 3fc9 e93d f3a6 c1bd
00000080: ff3f 313e f6b3 38be 011a d23d aeae 293e
00000090: 00e9 2dbe 65d1 97bb 7a68 3c3e 7426 26be
000000a0: 6577 34be 9b00 e23b 9659 74bd f62a 08be
000000b0: 7d7e 053e da00 203e f5da 47be fe87 a03d
000000c0: ab1c 1cbe 05c1 e83d 55b4 b3bd 4916 203e
000000d0: a4bf 47bd 4d0e e6bd 753a 523e 7680 c43d
000000e0: 1548 11be 3187 103e 9cc1 a1bd 6343 5fbe
000000f0: ae1c 90bd 02be aebd 305e e53c 3b67 febd
00000100: 747c 04bd 042c 37be aa2e 3ebe f763 62bd
00000110: 2eb1 433e bf4f eabd d189 8f3d 099c e1bc
00000120: fc52 223e e0aa e33c 75c4 07be 24a4 f8bd
00000130: 204c 50bc c49a ba3c c83d 21be 1891 743d
00000140: 229e 0fbe bcbc d73d 1dbc 0bbe c91e cf3d
00000150: ca26 1cbe 92a4 2bbe 8641 8f3d 16a1 3c3e
00000160: 2450 073e b2d3 8f3d 4bc1 4d3e 20e5 00be
00000170: aef4 263e f7e5 883c e54b c1bc 3bc6 8e3d
00000180: 1e40 32be c059 77bb 4cef 39be 26db 023e
00000190: 5c95 4cbe d3f8 133e e279 3abe e077 873c
000001a0: 3d34 143e 1901 233e 40c3 a7bc 597a 0ebd
000001b0: c6a6 88bd 4a5a 643c a1a2 153e 9e09 fd3d
000001c0: 9ce4 92bc d5a8 e4bd 98ca 743d 34bb 04be
000001d0: 23d6 733d e516 25be 59e3 f9bd 1a0f 0dbe
000001e0: 0235 2fbe 020a 5bbe d6ec 8dbd 0381 babd
000001f0: ba96 283d 7603 323d 61ad 25bc 4c73 bd3d
00000200: 6708 223e 8224 3d3b f524 093e 57d7 d33d
00000210: 8a45 25be 4468 0ebe 0c1d bb3d b58d c73d
00000220: 929a 9fbc a97d 0bbe 70f1 20be 6aa1 46be
00000230: 090b 76bc 26f1 0c3e f6f8 c3bc 305d 953d
00000240: f2d3 743b 7fa8 50be b676 103e c80b 65bd
00000250: d886 5e3d d283 2f3e c986 3fbe 004b 263d
00000260: b3df 1bbe 9721 5abd df2b 0fbb 8b4e 51be
00000270: 61f6 3c3e 3052 05bc c431 47bd a64f 23be
00000280: f187 033e f82d d13d 677b af3d 1beb 29be
00000290: f367 1e3e 6fc5 873d 0cb7 41be 5cfc bb3c
000002a0: caca f53d 18c0 9f3d 15eb f2bd 7a04 0a3e
000002b0: 8937 2abd b557 2e3e 5b2b 953c f351 353e
000002c0: 1ed2 393e e41d 483e 6b55 3fbe 5f09 3e3e
000002d0: e5fd 34be 91d8 31be 110e 8bbd 8077 42be
000002e0: 1853 a8bc 9d8e b6bc a058 5ebd a62f 2cbe
000002f0: 0716 553e 5114 273d 0cba 063d f6a8 463d
00000300: 2280 86bd da7e cf3d 4c2a 273e b072 943d
00000310: 182f 20be d57a 493e 8821 433e d9c2 623c
00000320: e6e0 d7bd b022 7d3d 31b3 633c 712d 50be
00000330: ec85 ed3d d94c f2bd 82df f0bd 5ddb efbc
00000340: 6084 49bd bcaa 92bd 1ede 2ebe 4805 233e
00000350: 1990 0fbd 205a abbb 54a5 4fbe e447 bbbd
00000360: f998 43be bd75 68bd 4e84 28be 574c 413e
00000370: 9f11 cdbd a810 8d3d 879b dc3b cde8 af3d
00000380: bc9c 0e3e fea8 0c3e ed84 e7bd a0a9 2bbe
00000390: acbc 263e a491 02bd 2aee 37be ea48 17be
000003a0: 02d1 02be 108a 323e f4ee 9ebd ee85 7cbd
000003b0: 47aa c4bd 550a e53d ca31 12be 3b93 1b3e
000003c0: 5655 4d3d b4bc 8f3d cd26 6ebc ab68 4e3e
000003d0: 9fbe 46be d037 c13c 3327 4bbd 7362 c23d
000003e0: a100 22be 50b4 5cbc 6b14 b63d f4c2 0ebd
000003f0: e21f 17be 669f 513d d599 e03d 765d 60be
-0.066208296 0.22586754 -0.08302875 0.15947469 -0.18173595 -0.10180664 0.20002738 -0.16610907
-0.09083647 -0.18216589 0.16473386 0.10910627 -0.080482736 0.016288266 0.09671607 -0.14785986
0.13704544 -0.025968771 -0.082469754 -0.15945141 0.22685207 -0.051580273 0.08106639 -0.19822319
0.0879794 -0.15597919 0.0968048 0.018277053 0.10460687 -0.100903265 0.11415338 -0.09455671
0.17309569 -0.180374 0.10258866 0.16570541 -0.16983414 -0.004633116 0.1839923 -0.16225606
-0.1762367 0.006897045 -0.05965575 -0.13297638 0.13036533 0.15625325 -0.19517119 0.078384385
-0.15245311 0.113649406 -0.0877463 0.15633501 -0.048766747 -0.112331964 0.20530112 0.095948145
-0.14187653 0.14114071 -0.07898256 -0.2180305 -0.0703672 -0.08532335 0.027999014 -0.124220334
-0.03234525 -0.17887884 -0.18572488 -0.055271115 0.19110557 -0.114409916 0.07008708 -0.027540224
0.15851969 0.02779144 -0.13258536 -0.12140682 -0.012713462 0.022778876 -0.15746224 0.059708685
-0.14025167 0.10534045 -0.13645978 0.10113294 -0.15249172 -0.16761997 0.069949195 0.18420824
0.13214165 0.070227996 0.20093267 -0.12587404 0.16304275 0.016711218 -0.02359576 0.06971403
-0.17407271 -0.0037742704 -0.18157691 0.12778911 -0.19978851 0.14450388 -0.18210557 0.016536653
0.14473052 0.15918387 -0.020478845 -0.03478465 -0.066724345 0.013937542 0.14612819 0.1235535
-0.017931275 -0.11165015 0.05976352 -0.12962037 0.05953039 -0.16122015 -0.12201566 -0.13775292
-0.17110065 -0.21390536 -0.069299385 -0.09106638 0.04115937 0.04346033 -0.0101121375 0.09250507
0.15823518 0.0028860872 0.13393004 0.10343807 -0.16139808 -0.13906962 0.091363996 0.09743825
-0.019482885 -0.13622154 -0.15717101 -0.19397512 -0.015017279 0.13763866 -0.023922425 0.07293165
0.0037357775 -0.20376776 0.14107785 -0.05591944 0.054327816 0.17140129 -0.1870376 0.04059887
-0.15222053 -0.05325469 -0.0021846218 -0.20440118 0.18453361 -0.008137271 -0.048631445 -0.15948352
0.12844826 0.10213846 0.08568459 -0.16593592 0.15469341 0.06629454 -0.18917483 0.022947483
0.120015696 0.07800311 -0.118612446 0.1347827 -0.04155687 0.17025645 0.01820915 0.17707042
0.1814656 0.19542652 -0.18684928 0.18558262 -0.17674978 -0.1736777 -0.06789792 -0.18990898
-0.020547435 -0.0222848 -0.054283738 -0.16815051 0.20809184 0.04079086 0.032892272 0.048500977
-0.06567408 0.10131617 0.16324729 0.072484374 -0.15642965 0.19675763 0.1905576 0.013840401
-0.10540943 0.06180066 0.013897703 -0.20329835 0.11597809 -0.11831064 -0.11761381 -0.029279405
-0.04919851 -0.07161471 -0.17076918 0.15919983 -0.03504953 -0.0052292496 -0.20277911 -0.091445714
-0.19101323 -0.05675291 -0.1645672 0.18876778 -0.100131266 0.068879426 0.0067324075 0.08589325
0.13926977 0.1373634 -0.113046505 -0.16763926 0.1628291 -0.031877175 -0.17961946 -0.14773908
-0.12775043 0.17435479 -0.077604204 -0.061651163 -0.0960279 0.11183611 -0.14276806 0.15192883
0.05013021 0.07018414 -0.014535618 0.20157115 -0.19408654 0.023586184 -0.04959793 0.09491434
-0.15820552 -0.013470724 0.08890613 -0.03485389 -0.14758256 0.051177405 0.10966841 -0.21910653

sequential_1/conv2d_4/Conv2D f4 [32, 3, 3, 32]
00000000: 0179 8ebd 5ae2 423d 7154 573d e029 9e3d
00000010: e883 c23d 2af0 993d e1f6 1bbd c761 6cbd
00000020: 1041 763d 2a95 673c d0b3 363d 8cb0 18bd
00000030: 3b4f c0bd 0c66 7c3d 8463 d1ba d8d0 8c3d
00000040: 11d3 c3bd afe6 48bc 6230 983d f970 2c3d
00000050: 7c3a 4bbd f7ab 843b e959 9abd cbc9 12bc
00000060: 14e0 6f3d ab78 a9bd 7be6 213a 9628 80bd
00000070: 8b37 1a3d 02f5 af3d 7efa b3bd 0c4f ba3d
00000080: 3afd 8ebd a01b 80bd c828 7f3d 7af8 13bd
00000090: 0be7 9b3d 9a6c 86bd 0412 0f3d 2579 5abd
000000a0: 9b25 95bd b7fe 2c3d fba7 673d 5e50 6fbd
000000b0: f2ae c93d 72e6 b7bd 3709 1dbc 39d5 443d
000000c0: 3a78 b73d a8ae b1bb 6ca5 aa3d d51b 66bd
000000d0: 25e6 61bd 034e a83d 982f 693d 0142 87bd
000000e0: 11ab 3bbd cff5 51bd d309 68bd fac4 96bd
000000f0: 1dcf 1b3d 68be 8dbd f21a 4c3c 4743 7fbd
00000100: 02ba 0bbd c44b 2f3d 1fe4 c43d db66 173d
00000110: d933 61bd 6c2a 973c af29 60bd d2ef 7f3d
00000120: e4f1 99bb e9b2 2dbd 52ff 953d 4b05 073e
00000130: 853e 80bd b496 1f3d 1653 d1bb 7536 70bc
00000140: 0009 3f3d bcb3 ae3c 66e4 c73a 4703 e93c
00000150: a3c9 963c 505c 8d3d 0c90 8cbd 0917 f7ba
00000160: d38a 123d 8769 373d 69dd d5bd a47e b1bd
00000170: 60be ad3c e5c1 b3bc 010d ae3d 8878 a6ba
00000180: ca11 313d fd0c b3bd 08ab a03c e919 05bd
00000190: 4648 2ebd b5d7 2e3b 1893 6cba bda8 f23c
000001a0: 2745 21bd 522c 91bd fb3e 673d 8e46 1abd
000001b0: ef85 853d 2e9e 47bd 1df0 d1bd b008 07bd
000001c0: 547d 3bbd 041b 433c 067f a63d cdab cebd
000001d0: bb72 c03c 68ec 7d3d 56d2 b03d b547 1abc
000001e0: 0020 453a 2058 36bc 3b53 533d 8dd3 54bc
000001f0: dbc8 03bc 9d53 89bd 0ec0 55ba 0d12 f43c
00000200: 6617 b6bd b0ec ab3c 995a d53c 97aa d23d
00000210: b55a 623d 9a33 813c 1fc7 ebbd 0d0b 40bd
00000220: 6ccf 6f3d a247 aa3d 8e91 953d c5fb 96bd
00000230: 507b 8d3d 88be 833a cb47 b6bd 1a70 0cbd
00000240: 2b1d 44bd 6863 863c 175b 3abd 100f 7abd
00000250: 2267 b23d 40cf dc3d 228c 413d 00bf afbd
00000260: 968b 19bc eee7 dabd 9729 613d e150 c3bd
00000270: 38e5 d53c 8358 80bc a0f2 73bd d50b 50bc
00000280: 4d1b 853d 61fb 6abd 49cb 613d 6670 b9bd
00000290: 100c 04bc 1693 7ebc a6c9 bb3d 666e b7bd
000002a0: ec81 0bbb f3f1 a83b f208 4d3c ef2b ba3d
000002b0: ce8a 243d e0c1 cb3c 3f11 88bd eb5c c9bc
000002c0: 841a c63d f792 3abd 82e3 783d 0df2 033d
000002d0: eeb1 91bd 98c6 8d3d 2f23 83bd e772 4e3d
000002e0: bd6e 70bc 5ce0 2d3d ad73 9e3d 62a7 5ebd
000002f0: 63b9 533d da24 b23b f37e 843d e23c 143d
00000300: 8a42 b9bd ec75 213d 2092 743b d535 3fbd
00000310: d42b eebc a720 3dbd 7acb afbd 87f4 373d
00000320: 62cd 4fbd 073d d1bc 03ef c5bd 6fff 34bc
00000330: df0c f4bd 4c92 2e3c d2d7 ff3b d999 163d
00000340: dc56 afbd 396b 673d bdc6 853b 3a1c 87bd
00000350: 9e82 983d 3b65 40bd 21c8 183d 7261 b7bd
00000360: 2038 593d 6a74 dfbd 8e9d b0bd d2f4 cabd
00000370: 2d4e b33d 3651 17bc 9538 753c b321 2f3d
00000380: cd7e cabd 667b 26bd 547e c43d a9ef 43bd
00000390: 0e9c c33d a7a5 ef3c 5355 ba3d 8052 b2bd
000003a0: 541f 3b37 d694 b2bd a452 48bd d56a 373c
000003b0: 8845 853d b1b1 93bd 8857 bdbc 75fa 863d
000003c0: 492c bebc 7ac8 593b 8aee 723c ca56 8bbd
000003d0: 9e1f 0a3c aa1e 7dbd 8064 bcbb b315 e5bc
000003e0: 9c73 403d 32d6 e8bd 84ab c1bd 41a9 a43d
000003f0: 991d bb3d 296e c83d 6a8c 543d fe56 a9bd
-0.069566734 0.047579147 0.052570764 0.07722831 0.09497815 0.07516511 -0.03807724 -0.057710435
0.060120642 0.014134685 0.044605076 -0.037277743 -0.09390112 0.061620757 -0.0015975093 0.06875771
-0.09561742 -0.0122620305 0.07431103 0.042099927 -0.049616322 0.00404882 -0.0753668 -0.008959244
0.058563307 -0.08274969 0.0006176007 -0.06257741 0.037650626 0.085916534 -0.08788012 0.09097108
-0.06981893 -0.06255269 0.06229475 -0.036125638 0.07612427 -0.06563683 0.03492929 -0.05333819
-0.07282563 0.042235103 0.056556683 -0.058426253 0.09847821 -0.08979501 -0.0095847165 0.048054907
0.08958478 -0.005422432 0.08332333 -0.056178886 -0.055151124 0.082180046 0.056930155 -0.06604386
-0.04581744 -0.051259812 -0.056649994 -0.07361789 0.038039315 -0.06921083 0.012457596 -0.06232002
-0.034112938 0.042796865 0.09613823 0.036963325 -0.054981086 0.018452846 -0.054727253 0.06248457
-0.004698025 -0.04240695 0.07324089 0.13185613 -0.06261925 0.03896208 -0.0063880784 -0.014661421
0.046639442 0.021325938 0.0015250563 0.028443946 0.018406695 0.06902373 -0.06863412 -0.001885147
0.035776924 0.044778373 -0.10442621 -0.08666733 0.021208942 -0.021943042 0.08498574 -0.0012700716
0.043229856 -0.08742712 0.019612804 -0.032495413 -0.042549394 0.0026678864 -0.0009024604 0.029621476
-0.03937259 -0.070885316 0.056456547 -0.037664942 0.065196864 -0.048734836 -0.10250876 -0.03296727
-0.04577382 0.0119082965 0.081296965 -0.10091362 0.023492208 0.061993033 0.086338684 -0.00941651
0.0007519722 -0.011129409 0.051593047 -0.012989891 -0.008043493 -0.06705401 -0.00081539236 0.029793764
-0.08891182 0.020986885 0.026044177 0.10286444 0.055262286 0.015771676 -0.11512589 -0.04688554
0.058547422 0.08314444 0.07303153 -0.0737224 0.069082856 0.001005129 -0.08900412 -0.034286596
-0.04787938 0.016404822 -0.045497026 -0.06104952 0.08711077 0.10781717 0.04725278 -0.08581352
-0.009371659 -0.10688768 0.054971304 -0.09536911 0.026110277 -0.015667206 -0.059557557 -0.0126981335
0.06499348 -0.05736864 0.05512551 -0.090546414 -0.008059517 -0.015537998 0.09169321 -0.08956604
-0.0021287156 0.0051557957 0.01251434 0.09090411 0.040171437 0.02487272 -0.066439144 -0.02458044
0.09673026 -0.045550313 0.060763843 0.03221326 -0.071140155 0.069226444 -0.06403195 0.05040255
-0.01467484 0.042450294 0.07736907 -0.054358847 0.05169047 0.005436522 0.06469526 0.036190875
-0.090458944 0.0394191 0.0037318543 -0.046682198 -0.029073633 -0.046173718 -0.08583732 0.044910934
-0.050732978 -0.025541795 -0.096647285 -0.011047228 -0.119165175 0.010654997 0.00780771 0.036767814
-0.08561489 0.05649874 0.0040825293 -0.06597181 0.07446788 -0.04697154 0.037300233 -0.08954133
0.05303204 -0.10910876 -0.08623801 -0.09909977 0.08755145 -0.009235671 0.0149671035 0.042756747
-0.098874666 -0.040645026 0.09594408 -0.04783598 0.095512494 0.029253794 0.090983056 -0.08707142
1.1153363e-05 -0.087197945 -0.048906937 0.011194904 0.06507403 -0.07211626 -0.023113027 0.0659074
-0.023214476 0.0033231066 0.01482738 -0.06803663 0.00843039 -0.06179682 -0.005749285 -0.027964449
0.046985254 -0.113689795 -0.09456542 0.08040095 0.09136505 0.097866364 0.05189172 -0.082685456

sequential_1/conv2d_5/Conv2D f4 [32, 3, 3, 32]
00000000: d216 103d 0ba3 843d 610e d33c cc5f 95bd
00000010: 9c78 e73b 7bbb d33d 0acc a43c eb07 42bd
00000020: b5a0 c2bd bae1 ae3d 10c2 f8bb cea3 21bc
00000030: 560f 513c 308a 9a3b 62a9 97bc 4b19 a43c
00000040: a80e 923b a41a 63bc c471 c93b 1059 ce3b
00000050: 28ab 9ebd 9d93 413d f94a ed3d e0fe 84bd
00000060: 38dd 8c3d de55 8c3d d269 ed3d c805 883c
00000070: ae36 f53c 8bc5 be3d 5c89 8bbd 81ad be3d
00000080: b8b5 84bc 85f0 813d e46f 673d 0f1d 83bd
00000090: ddab 6e3d 69b0 90bd 43a8 1cbd 3426 76bd
000000a0: 3ddb d6bd 4dee 063d fcec debc 9558 80bd
000000b0: 2c8c 34bb 0fba 813d 76c4 ccbc 3973 be3c
000000c0: 5a38 e3bd c403 54bd c205 b9bd 4513 87bd
000000d0: 94f1 c8bb 4f31 f43c ef6e fc3b 583b 6ebc
000000e0: e40e e4bd 91e8 893c 58b7 253c 4bc2 03be
000000f0: fd2d 6a3d 5fed bf3d 64e4 9ebd 92ee 99bd
00000100: 3ea3 c0bd aeb1 ca3b 6745 cdbc 2763 99bd
00000110: 04ab ecbd 39c3 d4bd d657 8abd 0493 9a3d
00000120: 1115 a4bd b7ad 30bd ca3a 893d 4524 bebc
00000130: eb9e 693d 7d74 a6bc 6e3a 3bbd 6452 583d
00000140: 8292 153d 8500 7d3d 991f 503d 5d66 9dbd
00000150: d2f1 8b3d 8f11 9bbd 8a3b 6cbd 7fd1 823c
00000160: 19e5 d2bc 3a1f 75bd 115f 4e3d b28d 7dbd
00000170: ef56 8dbd 512c 4bbd e4fd 9b3d 44ab 35bd
00000180: fd7b aabd a26b 883d 97cb 823d 5b03 423c
00000190: 1d94 ae3c ec24 edbc 726c 173d c08c 1a3d
000001a0: c35c a33c b767 b03d 9412 bfbc baaf c73d
000001b0: 7f75 033c 6754 f23d d59e cb3c fb6c 1a3d
000001c0: fe39 f33d 45e7 903d 4cd1 9e3c 3029 533c
000001d0: ef8c 863b b6fa 9fbd 72c0 dbbd 232e 4ebb
000001e0: f261 80bd f78f a3bc 9a62 cb3b 19fe 29bd
000001f0: e89c 8f3d 4998 033e 9f8f c33d a68f 9e3c
00000200: 8a69 64ba ca96 513d 8dc2 88bd d0b5 6cbd
00000210: 3660 923c d393 803d a98b 163d 9672 9dbd
00000220: 8e20 923d ca4b babc 009d feba 70f8 9ebd
00000230: 4823 dbbd 1995 39bd ca71 c23c 1be3 19bd
00000240: 1c18 34bd e429 c73d b46d ac3c d699 88bd
00000250: 0fe7 543c 202a 0b3c a218 96bd 3c65 723c
00000260: c456 febc 1a79 84bd 379a c83c cbcb 3abd
00000270: ac6b b73c b0bd b5bd 5df1 5abd ffae 75bc
00000280: 8264 cc3c d263 54bd e4ef 753c 3ebf 0c3c
00000290: cd4d d33d 0beb 57bd b347 7c3c 530f c03c
000002a0: 36b3 f2ba e764 353d a2da 3abd 415f 6abd
000002b0: 4c1d cfbd df7e d2bc f197 a3bc 3131 b13d
000002c0: a716 ee3d 9c5b aa3d 4db6 6a3d ce0c 8b3d
000002d0: fc16 1a3d 0b6e babd 7509 c0bd 34d1 a9bd
000002e0: b24f 35bd 6841 4d3c ea86 7b3c e7e9 a0bb
000002f0: df9a 81bd f6f4 1ebd c603 c33d 726b af3d
00000300: 6474 03bc 84f1 bbbd bdd2 d73c 509c 973c
00000310: 7706 c83b 62d2 b5bd 0ac2 afbd 1991 8f3d
00000320: 5146 a7bd 5a6b c83c 2cd4 573d f01a be3d
00000330: cca8 dfbd d204 02bd 4701 033c c1c5 a4b9
00000340: 23cc 883d 122a 2abc e607 60bd 94ba afbd
00000350: eebe d0bd 273e 9b3d dffe 9c3d d898 263d
00000360: f96b c4bd 5194 ac3d d9c9 7a3d 2c68 01bd
00000370: 7c6c febc 6721 ca3d d221 40bc 125b 833b
00000380: 9591 6cbd 89e5 2cbc 3395 913b f4be a8bc
00000390: 8b82 6c3d 82bd d73d 96f3 b4bd acf7 92bd
000003a0: 7636 89bd 5670 f6bc 2853 d43c 983b 4e3c
000003b0: c811 0bbd 5a87 4fbd 42b5 293d 74a6 df3c
000003c0: 1ff8 a93d de9e 803d e511 b8bd 6605 3bbd
000003d0: f487 88bd 665b a7bd 19b1 bd3d 0501 6a3d
000003e0: 52e3 4b3d bce5 2f3c bba6 1c3c c838 853c
000003f0: cea8 86bd 03ae dfbd ef95 b33d cd32 8b3d
0.035178013 0.064764105 0.025763692 -0.072936624 0.0070639383 0.103384934 0.020116825 -0.047370832
-0.09503309 0.08539148 -0.0075914934 -0.009865714 0.012760004 0.0047161803 -0.018513385 0.020031592
0.0044573136 -0.013861332 0.006147595 0.006297238 -0.07747489 0.047259916 0.115865655 -0.06493926
0.06878132 0.06852315 0.11592449 0.01660432 0.0299333 0.09315022 -0.068133086 0.09310437
-0.016199932 0.063447036 0.05650319 -0.06402027 0.05826937 -0.070648976 -0.038246404 -0.060095027
-0.10491035 0.032942105 -0.027212612 -0.06266896 -0.002754937 0.06334316 -0.024996024 0.023248302
-0.110947326 -0.051761404 -0.09034301 -0.06595472 -0.006132314 0.029808668 0.007703654 -0.014540516
-0.11135653 0.01683453 0.010114513 -0.12867086 0.057172764 0.09371447 -0.07758406 -0.07516207
-0.09406136 0.006185732 -0.025057508 -0.07489615 -0.11556056 -0.10388798 -0.067550346 0.07547572
-0.080118306 -0.043134417 0.06700666 -0.023210654 0.05703632 -0.020319218 -0.04571002 0.05281295
0.036516674 0.061768074 0.050811384 -0.0768554 0.06833233 -0.075717084 -0.05767397 0.015969036
-0.025744008 -0.059844233 0.05038363 -0.06190271 -0.06901347 -0.04960281 0.07616785 -0.044352785
-0.0832443 0.06661154 0.06386488 0.01184162 0.02131086 -0.02894827 0.036968656 0.037731886
0.019941693 0.08613532 -0.023324288 0.09750314 0.008023619 0.11832505 0.02485601 0.037701588
0.118762955 0.07075361 0.01938691 0.012888238 0.004106156 -0.07811491 -0.107300654 -0.0031460605
-0.062686816 -0.019966109 0.0062068226 -0.041502092 0.07012349 0.12851061 0.09548878 0.019355606
-0.00087132363 0.051169194 -0.066777326 -0.057790577 0.017868143 0.06278195 0.036754284 -0.07687871
0.071351156 -0.022741217 -0.0019425452 -0.077622294 -0.10700089 -0.045308206 0.0237359 -0.0375701
-0.043968305 0.09724787 0.021048404 -0.06669967 0.012994542 0.00849393 -0.07328917 0.014794644
-0.031047232 -0.06468411 0.024487598 -0.04560451 0.02239021 -0.08874071 -0.05345284 -0.014995336
0.02495027 -0.05185301 0.015010808 0.008590518 0.10317574 -0.05271439 0.015397954 0.023444807
-0.0018516544 0.04428568 -0.04561866 -0.057219747 -0.1011301 -0.025695262 -0.019969912 0.08651961
0.11625414 0.08318254 0.05730276 0.06789552 0.037619576 -0.0910302 -0.09376804 -0.082918555
-0.044265456 0.012527801 0.01535199 -0.004910696 -0.063283674 -0.03880783 0.09522204 0.085654154
-0.008023355 -0.09176925 0.026345605 0.018507153 0.0061042863 -0.08878018 -0.08581932 0.07010097
-0.08167709 0.024465252 0.052692577 0.09282482 -0.10920867 -0.03174288 0.00799591 -0.00031427856
0.06679561 -0.010386007 -0.054695033 -0.08580509 -0.10192667 0.07580214 0.076658 0.040673107
-0.09590907 0.084267266 0.061227653 -0.031593487 -0.031057589 0.09869652 -0.011726813 0.004008659
-0.057756025 -0.010552772 0.0044428348 -0.020598866 0.057741683 0.105341926 -0.08835523 -0.07176146
-0.06699841 -0.030082863 0.025918558 0.01258745 -0.033952504 -0.05066619 0.041432627 0.02730105
0.082992785 0.062803015 -0.08987788 -0.045659445 -0.06666556 -0.0817173 0.09262294 0.05712988
0.049777336 0.010735925 0.009561236 0.016262427 -0.06575166 -0.10921862 0.08768832 0.06796799

sequential_1/conv2d_3/Relu;sequential_1/conv2d_3/BiasAdd;sequential_1/conv2d_5/Conv2D;sequential_1/conv2d_3/Conv2D;sequential_1/conv2d_3/BiasAdd/ReadVariableOp/resource f4 [32, 3, 3, 3]
00000000: 3654 dd39 2785 143a 7afb dfb9 0ecd cab9
00000010: fd2d b737 aa1e a939 5352 c6b9 ad32 3439
00000020: 1bd7 163a b140 4539 d1bd 7c39 35ae 1c3a
00000030: 0d30 94b8 34a3 e8b8 d0a5 aeb8 7e37 073a
00000040: 2498 1f3a 3eb4 0a39 057d fdb8 0895 e0b9
00000050: eb01 9139 aa10 4cb9 4fd6 70b9 00c2 d8b8
00000060: cd5b ffb9 ca2c 72b9 c254 dab9 b527 6939
00000070: daaa b039 a88a 2538 cbc0 cd39 c917 ce39
00000080: 6ce4 51b8 da0f ac39 3724 9a39 89ba 94b9
00000090: 48db ecb9 95b3 b1b9 38e6 b2b9 220c e839
000000a0: fbc4 a739 26ec dd38 c1c6 b6b9 8239 54b5
000000b0: 8b91 5eb9 8001 b6b9 984e 9739 d728 c639
000000c0: d4a9 7c38 3b3f 82b9 2ca7 bfb9 dcc4 1939
000000d0: c5f1 2ab9 50f8 04ba 129d d138 d7cd f137
000000e0: ec22 9a39 f253 8c39 d0fa 113a f3d0 0a38
000000f0: bc19 e639 3025 053a dbb1 ec39 da8c ca39
00000100: 4ce8 8d38 542a 9bb8 9f22 e939 6700 9139
00000110: 86a1 ae37 dfbd 013a 105b 8538 3bbf bf39
00000120: 2786 65b9 c573 b2b9 3259 9c39 3759 d0b9
00000130: d08c f0b9 6a48 53b9 666f a4b8 7b97 a939
00000140: 9d74 f438 5a79 0db8 b676 ec37 cd93 ee39
00000150: 2a31 f838 ee18 dfb9 7c55 c4b9 be1d 6938
00000160: 20bf be39 b9bd 81b9 896c acb9 300f d5b8
00000170: 9c20 81b9 70ef a0b9 7953 ad39 cdc1 63b9
00000180: b60b 053a 4096 0f39 b2a9 c539 43b0 1439
00000190: 4878 ddb9 d531 7e39 6459 8339 a704 eb39
000001a0: 340c d739 b58c a239 bf1b 8f39 0827 f539
000001b0: 188e 3f38 632b 78b9 2df9 e4b9 77df edb9
000001c0: 0d63 b4b9 a6a1 6fb9 6066 1b39 8630 efb9
000001d0: ac59 f639 e12b 15ba 952f b539 2431 043a
000001e0: 8084 8f39 da7b 9ab9 3a58 84b9 e64b 59b9
000001f0: 71e0 7c39 4f93 bab9 fe1a 8439 35f4 d9b7
00000200: 65d8 bdb9 0e0f f339 9b6a 9eb8 4aaa 3239
00000210: 0f36 013a 62b2 143a 2792 1a39 3f61 e2b9
00000220: ef8a e0b9 61f6 d539 d7e9 2738 676e 9338
00000230: 0bd0 e0b9 ff6f ebb9 8028 8839 8198 02b8
00000240: 125e 3139 8240 a1b9 46d7 d238 6e8f a139
00000250: 799f e639 08f9 3439 5b4d feb9 971d 1b39
00000260: 9d9e d339 8f71 99b9 bd89 a939 3bd5 0aba
00000270: a03d 09ba 8e3b 08ba 5ab6 5bb9 5094 3fb9
00000280: 8e3c 07ba 9b9b 98b8 a9cd 8139 0bb3 183a
00000290: 023b bd39 7660 a5b6 eae2 f7b8 16ee db39
000002a0: 48fb f9b9 8c79 08b8 63ac 99b9 0d8a b5b7
000002b0: 5aff 5b38 5587 a539 0dcc 69b8 9d6c de39
000002c0: 53d5 b2b9 c918 4239 79fb c7b9 abc9 f4b9
000002d0: f627 a339 048b 0f3a a9ae dcb9 9ad9 fb39
000002e0: 89f0 b5b9 f0d3 9cb7 293a 91b9 bee4 c5b9
000002f0: f7ab 5cb9 02ac 77b9 ffd4 19b8 e981 9738
00000300: 2ad0 2639 abed 90b9 baa8 06ba b56d 6239
00000310: 02c3 e2b9 2001 2d39 a5ce c4b8 eac7 edb6
00000320: 7fb0 b439 6b0e 5c39 3191 1839 cb6d c738
00000330: 61c2 03ba 3cc3 9a39 6e68 c237 3542 30b9
00000340: 5361 e339 178d 3739 68f0 4db6 fe94 be39
00000350: a28c f839 2938 52b9 f03d 9ab9 0c8b f239
00000360: 0c68 05ba 220d 10ba 2a10 a6b9 4c15 c039
00000370: b865 1039 df88 b639 06af 9038 baf2 4d39
00000380: 0f9e 0e3a 0d12 edb9 27cc bc39 7d29 9c38
00000390: abb4 f5b9 7e36 023a 21a3 8db8 9259 7f39
000003a0: 732f 30b9 006b c738 ed58 c938 8922 88b9
000003b0: 3892 fbb9 6a86 c439 18b0 7839 b9bd c339
000003c0: a679 4839 0393 01b9 43cb 54b9 4eff 8539
000003d0: e3f0 2f39 7155 7a39 09d4 ee39 9f7c 95b7
000003e0: 84f1 f639 f71c 6839 3a44 a639 3090 b538
000003f0: e338 3ab9 76d4 0eb9 65bc ebb7 4eb2 9fb9
0.00042215147 0.0005665593 -0.0004272124 -0.0003868122 2.1836715e-05 0.00032257038 -0.0003782684 0.00017185016
0.0005754099 0.00018811483 0.00024103305 0.00059768866 -7.06614e-05 -0.00011093021 -8.3278515e-05 0.000515811
0.00060880394 0.00013227851 -0.00012087267 -0.00042835646 0.00027657984 -0.00019461164 -0.0002296802 -0.00010335818
-0.00048705787 -0.00023095604 -0.0004164335 0.00022235404 0.0003369663 3.94682e-05 0.0003924429 0.00039309103
-5.0042217e-05 0.00032818207 0.0002940015 -0.0002836774 -0.00045176805 -0.0003389387 -0.00034122332 0.00044259528
0.00031999484 0.00010582087 -0.00034861828 -7.905984e-07 -0.00021225789 -0.00034714863 0.0002885952 0.0003779593
6.0239647e-05 -0.00024842643 -0.00036554912 0.00014664553 -0.0001630253 -0.0005072402 9.995153e-05 2.882529e-05
0.00029399188 0.00026765425 0.0005568685 3.3096363e-05 0.00043888192 0.0005079089 0.0004514594 0.00038633385
6.7666726e-05 -7.39886e-05 0.00044467018 0.00027656855 2.0817632e-05 0.00049492525 6.358896e-05 0.00036572837
-0.00021889117 -0.0003403706 0.00029821094 -0.00039739322 -0.0004588128 -0.00020149504 -7.840879e-05 0.00032347054
0.000116565476 -3.3730037e-05 2.8188671e-05 0.00045505018 0.00011834719 -0.0004255245 -0.00037447724 5.557923e-05
0.00036382023 -0.00024746152 -0.00032887261 -0.0001015946 -0.00024629093 -0.00030695973 0.00033059323 -0.00021720603
0.00050752924 0.00013693515 0.000377012 0.00014180042 -0.0004224202 0.00024241892 0.00025052868 0.0004482616
0.00041017088 0.00031003883 0.00027295758 0.00046759122 4.5670284e-05 -0.00023667286 -0.000436732 -0.00045370657
-0.00034406074 -0.00022853035 0.0001482009 -0.00045621785 0.00046987587 -0.00056904374 0.00034558462 0.0005042723
0.00027373806 -0.00029465446 -0.00025242736 -0.00020723007 0.00024116204 -0.00035586438 0.00025197113 -2.5982134e-05
-0.00036210116 0.00046359788 -7.553884e-05 0.0001703884 0.0004929015 0.0005672333 0.0001474103 -0.00043178533
-0.00042828123 0.00040810092 4.0033683e-05 7.03007e-05 -0.00042879613 -0.00044906136 0.00025970116 -3.1136446e-05
0.0001691508 -0.00030756375 0.00010053678 0.00030815176 0.00043987835 0.00017258909 -0.0004850429 0.00014792975
0.00040363232 -0.00029267042 0.00032336815 -0.0005296056 -0.0005235318 -0.00051968626 -0.00020953399 -0.0001827043
-0.00051588647 -7.2769086e-05 0.00024758026 0.00058250193 0.00036092853 -4.9286127e-06 -0.00011820144 0.00041948323
-0.000476802 -3.2538126e-05 -0.00029310872 -2.1641166e-05 5.2451483e-05 0.00031572083 -5.5741566e-05 0.00042424063
-0.00034109745 0.00018510515 -0.000381436 -0.0004668956 0.00031119556 0.0005475732 -0.00042091802 0.00048036576
-0.00034702223 -1.869534e-05 -0.00027699888 -0.00037745194 -0.00021044897 -0.00023619834 -3.667641e-05 7.224439e-05
0.00015908541 -0.00027642897 -0.00051368366 0.00021593909 -0.0004325137 0.00016498985 -9.384499e-05 -7.0864235e-06
0.00034463775 0.00020986206 0.00014549938 9.50951e-05 -0.0005026218 0.0002951863 2.3175231e-05 -0.00016809332
0.00043369326 0.000175048 -3.0687315e-06 0.00036350632 0.00047407026 -0.00020048082 -0.00029419316 0.00046261435
-0.00050890516 -0.0005495121 -0.0003167403 0.0003663696 0.00013770803 0.00034815722 6.899056e-05 0.00019640746
0.00054404227 -0.00045217611 0.0003601026 7.4463875e-05 -0.0004686465 0.00049672264 -6.753789e-05 0.00024352063
-0.00016802344 9.50899e-05 9.6009906e-05 -0.00025965672 -0.00047983392 0.0003748418 0.00023716723 0.00037334653
0.00019118804 -0.00012357165 -0.00020293616 0.00025557954 0.00016779038 0.00023873687 0.00045552876 -1.7820215e-05
0.0004710072 0.00022136034 0.0003171282 8.6576096e-05 -0.00017759534 -0.00013621323 -2.8101911e-05 -0.0003045969

sequential_1/conv2d_3/Relu;sequential_1/conv2d_3/BiasAdd;sequential_1/conv2d_5/Conv2D;sequential_1/conv2d_3/Conv2D;sequential_1/conv2d_3/BiasAdd/ReadVariableOp/resource1 f4 [32]
00000000: e9c0 8e3c b52b c33b eb53 c73b bfd7 13bc
00000010: 0e24 c33c 55c1 a1ba 78d0 923c a375 b5ba
00000020: 6bde 113c 6b4c d33b f9f9 f33b 62ce ffba
00000030: 5f4b 8c3c f4c9 143d e1cd 803b 8eee 14bc
00000040: ad8c dbbb eee4 0c3c cc4d 833c 4c31 053c
00000050: 6605 ec3a 502e 043c aa6b 0a3c 7b1a 4abc
00000060: d468 8d3b d428 c33b 7d62 f4bb b776 493c
00000070: 2f0a 993c e306 633b 1fb0 87bb 0c35 83bc
0.017425971 0.005956138 0.006083002 -0.009023606 0.023820903 -0.0012340943 0.017921671 -0.0013844263
0.008903126 0.0064483187 0.0074455705 -0.0019516463 0.017125783 0.03632541 0.0039307927 -0.009090079
-0.0067001195 0.008599503 0.016028307 0.008129429 0.001800698 0.008067682 0.008448521 -0.012335415
0.004315475 0.005955795 -0.00745803 0.01229637 0.018681614 0.0034641556 -0.0041408683 -0.016016506
